* {
  margin: 0;
  padding: 0;
  box-sizing: border-box;
  font-family: "Poppins", sans-serif !important;
}

.beckn-app {
  background: url("./assets/beckn-background.png");
  background-size: 100% 100%;
  position: relative;
  height: 100vh;
  display: grid;
  /* align-content: center; */
  text-align: center;
}

.beckn-app-container {
  max-width: 1600px;
  width: 80%;
  margin: 0 auto;
  font-family: "Poppins", sans-serif !important;
}

.main-container {
  background: url("./assets/beckn-background.png");
  background-size: 100% 100%;
  height: 80vh;
}

.button-container {
  border: 1px solid #abd4fa !important;
  color: #abd4fa;
  width: 220px;
  font-size: 12px;
  height: 45px;
  display: flex;
  justify-content: flex-start;
}

.Title {
  font-style: normal;
  color: white;
  font-weight: 275;
  /* padding-top: 75px; */
}

.sequence {
  color: #fff;
  text-align: center;
  padding: 30px;
  font-size: 45px;
  font-weight: 400;
}
.main-div {
  border-bottom: 1px solid red !important;
}
.main-div > .point-left {
  border-right: 10px solid red !important;
}
.edge::before {
  content: "";
  height: 26px;
  width: 20px;
  position: absolute;
  left: -10px;
  top: 10px;
  background-color: #23dfdf;
}
.edge::after {
  content: "";
  height: 26px;
  width: 20px;
  position: absolute;
  right: -10px;
  top: 10px;
  background-color: #23dfdf;
}

.main-div.edge::after {
  content: "";
  height: 26px;
  width: 20px;

  position: absolute;
  right: -10px;
  top: 10px;
  background-color: red;
}
.point.point-left {
  margin-left: 10px;
}
.point.point-right {
  margin-right: 10px;
}
.flow-wrap > div .sc-bdVaJa {
  padding-left: 22px;
}
.sc-bwzfXH.cMQesN > .sc-bdVaJa {
  padding-left: unset;
}

.signal text {
  fill: #fff;
}

.goBack {
  position: "absolute";
  left: "50%";
  top: "50%";
  transform: translate(-"50%", -"50%");
  color: "#fff";
}

.image-url-container img:nth-child(2) {
  display: none;
}

.image-url-container:hover img:nth-child(1) {
  display: none;
}

.image-url-container:hover img:nth-child(2) {
  display: block;
}
.hover_card:hover {
  background: #abd4fa !important;
}

.source-node {
  background: rgb(172, 209, 240) !important;
}
.dest-node {
  background: #ffff !important;
}
.source-node-border {
  border: 2px solid #ffff !important;
}
.dest-node-border {
  border: none !important;
}

.mobilitySource {
  color: #fff;
  position: absolute;
  top: -4.5%;
  left: 0;
}
.whatsappSource {
  color: #fff;
  position: absolute;
  top: 71%;
}
.taxihubSource {
  color: #fff;
  position: absolute;
  top: -4.5%;
  right: 0;
}
.luxecabSource {
  color: #fff;
  position: absolute;
  top: 73%;
  right: 0;
}
.image-url-container img:nth-child(2) {
  display: none;
}
.hover_card:hover .main-title,
.hover_card:hover .sub-title {
  color: #000 !important;
}
.hover_card:hover .image-url-container img:nth-child(1) {
  display: none;
}
.hover_card:hover .image-url-container img:nth-child(2) {
  display: block;
}
@media screen and (min-width: 1366px) and (max-width: 768px) {
  .whatsappSource {
    top: 66%;
  }
  .luxecabSource {
    top: 68%;
  }
}
.react-flow{
  overflow: unset !important;
}
.XYZ{
  background: seagreen;
}
.react-flow__node.whatsapp {
  background: url('../src/assets/whatsapp.svg');
  width: 60px;
  height: 60px;
  display: flex;
  justify-content: center;
  align-items: center;
  background-color: #FFFF;
  background-size: 100% 100%;
}
.react-flow__node.mobility {
  background: url('../src/assets/myMobility.svg');
  width: 60px;
  height: 60px;
  display: flex;
  justify-content: center;
  align-items: center;
  background-color: #FFFF;
  background-size: 100% 100%;
}
.react-flow__node.Luxecub {
  background: url('../src/assets/luxe.svg');
  width: 60px;
  height: 60px;
  display: flex;
  justify-content: center;
  align-items: center;
  background-color: #FFFF;
  background-size: 100% 100%;
}
.react-flow__node.RHP {
  background: url('../src/assets/TravelbuddyLogo.svg');
  width: 60px;
  height: 60px;
  display: flex;
  justify-content: center;
  align-items: center;
  background-color: #FFFF;
  background-size: 100% 100%;
}
.react-flow__node.gateway {
  border-radius: 50%;
  width: 40px;
  height: 40px;
  display: flex;
  justify-content: center;
  align-items: center;
  background-color: rgb(34, 4, 4);
  color: #FFF;
  font-weight: 700;
  font-size: 5px;
  background-size: 100% 100%;
}